2018-09-26 04:24 ./model/model_f10_adj2.5_DF9_e1_.h5
data: ['center2', 'center3', 'reverse', 'curve2', 'recovery', 'flipped_center2', 'flipped_center3', 'flipped_reverse', 'flipped_curve2', 'flipped_recovery']
division factor: 9
adjustment constant: 2.5
cpochs: 1
_________________________________________________________________
Layer (type)                 Output Shape              Param #   
=================================================================
cropping2d_1 (Cropping2D)    (None, 100, 320, 3)       0         
_________________________________________________________________
lambda_1 (Lambda)            (None, 100, 320, 3)       0         
_________________________________________________________________
conv2d_1 (Conv2D)            (None, 96, 316, 5)        380       
_________________________________________________________________
activation_1 (Activation)    (None, 96, 316, 5)        0         
_________________________________________________________________
conv2d_2 (Conv2D)            (None, 92, 312, 10)       1260      
_________________________________________________________________
activation_2 (Activation)    (None, 92, 312, 10)       0         
_________________________________________________________________
conv2d_3 (Conv2D)            (None, 88, 308, 20)       5020      
_________________________________________________________________
activation_3 (Activation)    (None, 88, 308, 20)       0         
_________________________________________________________________
conv2d_4 (Conv2D)            (None, 84, 304, 30)       15030     
_________________________________________________________________
activation_4 (Activation)    (None, 84, 304, 30)       0         
_________________________________________________________________
flatten_1 (Flatten)          (None, 766080)            0         
_________________________________________________________________
dense_1 (Dense)              (None, 100)               76608100  
_________________________________________________________________
dropout_1 (Dropout)          (None, 100)               0         
_________________________________________________________________
activation_5 (Activation)    (None, 100)               0         
_________________________________________________________________
dense_2 (Dense)              (None, 1)                 101       
=================================================================
Total params: 76,629,891
Trainable params: 76,629,891
Non-trainable params: 0
_________________________________________________________________


2018-09-26 05:12 ./model/model_f10_adj2.5_DF1_e10_.h5
data: ['center2', 'center3', 'reverse', 'curve2', 'recovery', 'flipped_center2', 'flipped_center3', 'flipped_reverse', 'flipped_curve2', 'flipped_recovery']
division factor: 1
adjustment constant: 2.5
cpochs: 10
_________________________________________________________________
Layer (type)                 Output Shape              Param #   
=================================================================
cropping2d_1 (Cropping2D)    (None, 100, 320, 3)       0         
_________________________________________________________________
lambda_1 (Lambda)            (None, 100, 320, 3)       0         
_________________________________________________________________
conv2d_1 (Conv2D)            (None, 96, 316, 5)        380       
_________________________________________________________________
activation_1 (Activation)    (None, 96, 316, 5)        0         
_________________________________________________________________
conv2d_2 (Conv2D)            (None, 92, 312, 10)       1260      
_________________________________________________________________
activation_2 (Activation)    (None, 92, 312, 10)       0         
_________________________________________________________________
conv2d_3 (Conv2D)            (None, 88, 308, 20)       5020      
_________________________________________________________________
activation_3 (Activation)    (None, 88, 308, 20)       0         
_________________________________________________________________
conv2d_4 (Conv2D)            (None, 84, 304, 30)       15030     
_________________________________________________________________
activation_4 (Activation)    (None, 84, 304, 30)       0         
_________________________________________________________________
flatten_1 (Flatten)          (None, 766080)            0         
_________________________________________________________________
dense_1 (Dense)              (None, 100)               76608100  
_________________________________________________________________
dropout_1 (Dropout)          (None, 100)               0         
_________________________________________________________________
activation_5 (Activation)    (None, 100)               0         
_________________________________________________________________
dense_2 (Dense)              (None, 1)                 101       
=================================================================
Total params: 76,629,891
Trainable params: 76,629,891
Non-trainable params: 0
_________________________________________________________________



narrower the cropping part
2018-09-26 05:59 ./model/model_f10_adj2.5_DF1_e10_.h5
data: ['center2', 'center3', 'reverse', 'curve2', 'recovery', 'flipped_center2', 'flipped_center3', 'flipped_reverse', 'flipped_curve2', 'flipped_recovery']
division factor: 1
adjustment constant: 2.5
cpochs: 10
_________________________________________________________________
Layer (type)                 Output Shape              Param #   
=================================================================
cropping2d_1 (Cropping2D)    (None, 90, 320, 3)        0         
_________________________________________________________________
lambda_1 (Lambda)            (None, 90, 320, 3)        0         
_________________________________________________________________
conv2d_1 (Conv2D)            (None, 86, 316, 5)        380       
_________________________________________________________________
activation_1 (Activation)    (None, 86, 316, 5)        0         
_________________________________________________________________
conv2d_2 (Conv2D)            (None, 82, 312, 10)       1260      
_________________________________________________________________
activation_2 (Activation)    (None, 82, 312, 10)       0         
_________________________________________________________________
conv2d_3 (Conv2D)            (None, 78, 308, 20)       5020      
_________________________________________________________________
activation_3 (Activation)    (None, 78, 308, 20)       0         
_________________________________________________________________
conv2d_4 (Conv2D)            (None, 74, 304, 30)       15030     
_________________________________________________________________
activation_4 (Activation)    (None, 74, 304, 30)       0         
_________________________________________________________________
flatten_1 (Flatten)          (None, 674880)            0         
_________________________________________________________________
dense_1 (Dense)              (None, 100)               67488100  
_________________________________________________________________
dropout_1 (Dropout)          (None, 100)               0         
_________________________________________________________________
activation_5 (Activation)    (None, 100)               0         
_________________________________________________________________
dense_2 (Dense)              (None, 1)                 101       
=================================================================
Total params: 67,509,891
Trainable params: 67,509,891
Non-trainable params: 0
_________________________________________________________________


